…
  np_resource = np.dtype([("resource", np.ubyte, 1)])
WARNING:tensorflow:From /home/tx-lab/anaconda3/envs/dingyue/lib/python3.7/site-packages/keras/backend/tensorflow_backend.py:4070: The name tf.nn.max_pool is deprecated. Please use tf.nn.max_pool2d instead.

Model: "model_1"
__________________________________________________________________________________________________
Layer (type)                    Output Shape         Param #     Connected to                     
==================================================================================================
input_1 (InputLayer)            (None, 224, 224, 3)  0                                            
__________________________________________________________________________________________________
conv2d_1 (Conv2D)               (None, 224, 224, 64) 1792        input_1[0][0]                    
__________________________________________________________________________________________________
conv2d_2 (Conv2D)               (None, 224, 224, 64) 36928       conv2d_1[0][0]                   
__________________________________________________________________________________________________
max_pooling2d_1 (MaxPooling2D)  (None, 112, 112, 64) 0           conv2d_2[0][0]                   
__________________________________________________________________________________________________
conv2d_3 (Conv2D)               (None, 112, 112, 128 73856       max_pooling2d_1[0][0]            
__________________________________________________________________________________________________
conv2d_4 (Conv2D)               (None, 112, 112, 128 147584      conv2d_3[0][0]                   
__________________________________________________________________________________________________
max_pooling2d_2 (MaxPooling2D)  (None, 56, 56, 128)  0           conv2d_4[0][0]                   
__________________________________________________________________________________________________
conv2d_5 (Conv2D)               (None, 56, 56, 256)  295168      max_pooling2d_2[0][0]            
__________________________________________________________________________________________________
conv2d_6 (Conv2D)               (None, 56, 56, 256)  590080      conv2d_5[0][0]                   
__________________________________________________________________________________________________
conv2d_7 (Conv2D)               (None, 56, 56, 256)  590080      conv2d_6[0][0]                   
__________________________________________________________________________________________________
max_pooling2d_3 (MaxPooling2D)  (None, 28, 28, 256)  0           conv2d_7[0][0]                   
__________________________________________________________________________________________________
conv2d_8 (Conv2D)               (None, 28, 28, 512)  1180160     max_pooling2d_3[0][0]            
__________________________________________________________________________________________________
conv2d_9 (Conv2D)               (None, 28, 28, 512)  2359808     conv2d_8[0][0]                   
__________________________________________________________________________________________________
conv2d_10 (Conv2D)              (None, 28, 28, 512)  2359808     conv2d_9[0][0]                   
__________________________________________________________________________________________________
max_pooling2d_4 (MaxPooling2D)  (None, 14, 14, 512)  0           conv2d_10[0][0]                  
__________________________________________________________________________________________________
conv2d_11 (Conv2D)              (None, 14, 14, 512)  2359808     max_pooling2d_4[0][0]            
__________________________________________________________________________________________________
conv2d_12 (Conv2D)              (None, 14, 14, 512)  2359808     conv2d_11[0][0]                  
__________________________________________________________________________________________________
conv2d_13 (Conv2D)              (None, 14, 14, 512)  2359808     conv2d_12[0][0]                  
__________________________________________________________________________________________________
max_pooling2d_5 (MaxPooling2D)  (None, 7, 7, 512)    0           conv2d_13[0][0]                  
__________________________________________________________________________________________________
global_max_pooling2d_1 (GlobalM (None, 512)          0           max_pooling2d_5[0][0]            
__________________________________________________________________________________________________
global_average_pooling2d_1 (Glo (None, 512)          0           max_pooling2d_5[0][0]            
__________________________________________________________________________________________________
reshape_1 (Reshape)             (None, 1, 1, 512)    0           global_max_pooling2d_1[0][0]     
__________________________________________________________________________________________________
reshape_2 (Reshape)             (None, 1, 1, 512)    0           global_average_pooling2d_1[0][0] 
__________________________________________________________________________________________________
dense_1 (Dense)                 (None, 1, 1, 256)    131328      reshape_1[0][0]                  
                                                                 reshape_2[0][0]                  
__________________________________________________________________________________________________
dense_2 (Dense)                 (None, 1, 1, 512)    131584      dense_1[0][0]                    
                                                                 dense_1[1][0]                    
__________________________________________________________________________________________________
reshape_3 (Reshape)             (None, 1, 1, 512)    0           dense_2[0][0]                    
__________________________________________________________________________________________________
reshape_4 (Reshape)             (None, 1, 1, 512)    0           dense_2[1][0]                    
__________________________________________________________________________________________________
add_1 (Add)                     (None, 1, 1, 512)    0           reshape_3[0][0]                  
                                                                 reshape_4[0][0]                  
__________________________________________________________________________________________________
activation_1 (Activation)       (None, 1, 1, 512)    0           add_1[0][0]                      
__________________________________________________________________________________________________
multiply_1 (Multiply)           (None, 7, 7, 512)    0           activation_1[0][0]               
                                                                 max_pooling2d_5[0][0]            
__________________________________________________________________________________________________
lambda_1 (Lambda)               (None, 7, 7, 1)      0           multiply_1[0][0]                 
__________________________________________________________________________________________________
lambda_2 (Lambda)               (None, 7, 7, 1)      0           multiply_1[0][0]                 
__________________________________________________________________________________________________
concatenate_1 (Concatenate)     (None, 7, 7, 2)      0           lambda_1[0][0]                   
                                                                 lambda_2[0][0]                   
__________________________________________________________________________________________________
conv2d_14 (Conv2D)              (None, 7, 7, 1)      18          concatenate_1[0][0]              
__________________________________________________________________________________________________
multiply_2 (Multiply)           (None, 7, 7, 512)    0           multiply_1[0][0]                 
                                                                 conv2d_14[0][0]                  
__________________________________________________________________________________________________
add_2 (Add)                     (None, 7, 7, 512)    0           multiply_2[0][0]                 
                                                                 max_pooling2d_5[0][0]            
__________________________________________________________________________________________________
flatten_1 (Flatten)             (None, 25088)        0           add_2[0][0]                      WARNING:tensorflow:From /home/tx-lab/anaconda3/envs/dingyue/lib/python3.7/site-packages/keras/backend/tensorflow_backend.py:422: The name tf.global_variables is deprecated. Please use tf.compat.v1.global_variables instead.

2022-03-01 21:53:21.369260: I tensorflow/stream_executor/platform/default/dso_loader.cc:42] Successfully opened dynamic library libcublas.so.10
2022-03-01 21:53:21.534692: I tensorflow/stream_executor/platform/default/dso_loader.cc:42] Successfully opened dynamic library libcudnn.so.7

__________________________________________________________________________________________________
dense_3 (Dense)                 (None, 4096)         102764544   flatten_1[0][0]                  
__________________________________________________________________________________________________
dropout_1 (Dropout)             (None, 4096)         0           dense_3[0][0]                    
__________________________________________________________________________________________________
dense_4 (Dense)                 (None, 4096)         16781312    dropout_1[0][0]                  
__________________________________________________________________________________________________
dropout_2 (Dropout)             (None, 4096)         0           dense_4[0][0]                    
__________________________________________________________________________________________________
dense_5 (Dense)                 (None, 13)           53261       dropout_2[0][0]                  
==================================================================================================
Total params: 134,576,735
Trainable params: 134,576,735
Non-trainable params: 0
__________________________________________________________________________________________________
Found 7800 images belonging to 13 classes.
Found 1300 images belonging to 13 classes.
…
