…
  np_resource = np.dtype([("resource", np.ubyte, 1)])
WARNING:tensorflow:From /home/tx-lab/anaconda3/envs/dingyue/lib/python3.7/site-packages/keras/backend/tensorflow_backend.py:4070: The name tf.nn.max_pool is deprecated. Please use tf.nn.max_pool2d instead.

Model: "inception"
__________________________________________________________________________________________________
Layer (type)                    Output Shape         Param #     Connected to                     
==================================================================================================
input_1 (InputLayer)            (None, 200, 200, 3)  0                                            
__________________________________________________________________________________________________
block1_conv1 (Conv2D)           (None, 99, 99, 32)   864         input_1[0][0]                    
__________________________________________________________________________________________________
block1_conv1_bn (BatchNormaliza (None, 99, 99, 32)   128         block1_conv1[0][0]               
__________________________________________________________________________________________________
block1_conv1_act (Activation)   (None, 99, 99, 32)   0           block1_conv1_bn[0][0]            
__________________________________________________________________________________________________
block1_conv2 (Conv2D)           (None, 97, 97, 64)   18432       block1_conv1_act[0][0]           
__________________________________________________________________________________________________
block1_conv2_bn (BatchNormaliza (None, 97, 97, 64)   256         block1_conv2[0][0]               
__________________________________________________________________________________________________
block1_conv2_act (Activation)   (None, 97, 97, 64)   0           block1_conv2_bn[0][0]            
__________________________________________________________________________________________________
block2_sepconv1 (SeparableConv2 (None, 97, 97, 128)  8768        block1_conv2_act[0][0]           
__________________________________________________________________________________________________
block2_sepconv1_bn (BatchNormal (None, 97, 97, 128)  512         block2_sepconv1[0][0]            
__________________________________________________________________________________________________
block2_sepconv2_act (Activation (None, 97, 97, 128)  0           block2_sepconv1_bn[0][0]         
__________________________________________________________________________________________________
block2_sepconv2 (SeparableConv2 (None, 97, 97, 128)  17536       block2_sepconv2_act[0][0]        
__________________________________________________________________________________________________
block2_sepconv2_bn (BatchNormal (None, 97, 97, 128)  512         block2_sepconv2[0][0]            
__________________________________________________________________________________________________
conv2d_1 (Conv2D)               (None, 49, 49, 128)  8192        block1_conv2_act[0][0]           
__________________________________________________________________________________________________
block2_pool (MaxPooling2D)      (None, 49, 49, 128)  0           block2_sepconv2_bn[0][0]         
__________________________________________________________________________________________________
batch_normalization_1 (BatchNor (None, 49, 49, 128)  512         conv2d_1[0][0]                   
__________________________________________________________________________________________________
add_1 (Add)                     (None, 49, 49, 128)  0           block2_pool[0][0]                
                                                                 batch_normalization_1[0][0]      
__________________________________________________________________________________________________
block3_sepconv1_act (Activation (None, 49, 49, 128)  0           add_1[0][0]                      
__________________________________________________________________________________________________
block3_sepconv1 (SeparableConv2 (None, 49, 49, 256)  33920       block3_sepconv1_act[0][0]        
__________________________________________________________________________________________________
block3_sepconv1_bn (BatchNormal (None, 49, 49, 256)  1024        block3_sepconv1[0][0]            
__________________________________________________________________________________________________
block3_sepconv2_act (Activation (None, 49, 49, 256)  0           block3_sepconv1_bn[0][0]         
__________________________________________________________________________________________________
block3_sepconv2 (SeparableConv2 (None, 49, 49, 256)  67840       block3_sepconv2_act[0][0]        
__________________________________________________________________________________________________
block3_sepconv2_bn (BatchNormal (None, 49, 49, 256)  1024        block3_sepconv2[0][0]            
__________________________________________________________________________________________________
conv2d_2 (Conv2D)               (None, 25, 25, 256)  32768       add_1[0][0]                      
__________________________________________________________________________________________________
block3_pool (MaxPooling2D)      (None, 25, 25, 256)  0           block3_sepconv2_bn[0][0]         
__________________________________________________________________________________________________
batch_normalization_2 (BatchNor (None, 25, 25, 256)  1024        conv2d_2[0][0]                   
__________________________________________________________________________________________________
add_2 (Add)                     (None, 25, 25, 256)  0           block3_pool[0][0]                
                                                                 batch_normalization_2[0][0]      
__________________________________________________________________________________________________
block4_sepconv1_act (Activation (None, 25, 25, 256)  0           add_2[0][0]                      
__________________________________________________________________________________________________
block4_sepconv1 (SeparableConv2 (None, 25, 25, 728)  188672      block4_sepconv1_act[0][0]        
__________________________________________________________________________________________________
block4_sepconv1_bn (BatchNormal (None, 25, 25, 728)  2912        block4_sepconv1[0][0]            
__________________________________________________________________________________________________
block4_sepconv2_act (Activation (None, 25, 25, 728)  0           block4_sepconv1_bn[0][0]         
__________________________________________________________________________________________________
block4_sepconv2 (SeparableConv2 (None, 25, 25, 728)  536536      block4_sepconv2_act[0][0]        
__________________________________________________________________________________________________
block4_sepconv2_bn (BatchNormal (None, 25, 25, 728)  2912        block4_sepconv2[0][0]            
__________________________________________________________________________________________________
conv2d_3 (Conv2D)               (None, 13, 13, 728)  186368      add_2[0][0]                      
__________________________________________________________________________________________________
block4_pool (MaxPooling2D)      (None, 13, 13, 728)  0           block4_sepconv2_bn[0][0]         
__________________________________________________________________________________________________
batch_normalization_3 (BatchNor (None, 13, 13, 728)  2912        conv2d_3[0][0]                   
__________________________________________________________________________________________________
add_3 (Add)                     (None, 13, 13, 728)  0           block4_pool[0][0]                
                                                                 batch_normalization_3[0][0]      
__________________________________________________________________________________________________
block5_sepconv1_act (Activation (None, 13, 13, 728)  0           add_3[0][0]                      
__________________________________________________________________________________________________
block5_sepconv1 (SeparableConv2 (None, 13, 13, 728)  536536      block5_sepconv1_act[0][0]        
__________________________________________________________________________________________________
block5_sepconv1_bn (BatchNormal (None, 13, 13, 728)  2912        block5_sepconv1[0][0]            
__________________________________________________________________________________________________
block5_sepconv2_act (Activation (None, 13, 13, 728)  0           block5_sepconv1_bn[0][0]         
__________________________________________________________________________________________________
block5_sepconv2 (SeparableConv2 (None, 13, 13, 728)  536536      block5_sepconv2_act[0][0]        
__________________________________________________________________________________________________
block5_sepconv2_bn (BatchNormal (None, 13, 13, 728)  2912        block5_sepconv2[0][0]            
__________________________________________________________________________________________________
block5_sepconv3_act (Activation (None, 13, 13, 728)  0           block5_sepconv2_bn[0][0]         
__________________________________________________________________________________________________
block5_sepconv3 (SeparableConv2 (None, 13, 13, 728)  536536      block5_sepconv3_act[0][0]        
__________________________________________________________________________________________________
block5_sepconv3_bn (BatchNormal (None, 13, 13, 728)  2912        block5_sepconv3[0][0]            
__________________________________________________________________________________________________
add_4 (Add)                     (None, 13, 13, 728)  0           block5_sepconv3_bn[0][0]         
                                                                 add_3[0][0]                      
__________________________________________________________________________________________________
block6_sepconv1_act (Activation (None, 13, 13, 728)  0           add_4[0][0]                      
__________________________________________________________________________________________________
block6_sepconv1 (SeparableConv2 (None, 13, 13, 728)  536536      block6_sepconv1_act[0][0]        
__________________________________________________________________________________________________
block6_sepconv1_bn (BatchNormal (None, 13, 13, 728)  2912        block6_sepconv1[0][0]            
__________________________________________________________________________________________________
block6_sepconv2_act (Activation (None, 13, 13, 728)  0           block6_sepconv1_bn[0][0]         
__________________________________________________________________________________________________
block6_sepconv2 (SeparableConv2 (None, 13, 13, 728)  536536      block6_sepconv2_act[0][0]        
__________________________________________________________________________________________________
block6_sepconv2_bn (BatchNormal (None, 13, 13, 728)  2912        block6_sepconv2[0][0]            
__________________________________________________________________________________________________
block6_sepconv3_act (Activation (None, 13, 13, 728)  0           block6_sepconv2_bn[0][0]         
__________________________________________________________________________________________________
block6_sepconv3 (SeparableConv2 (None, 13, 13, 728)  536536      block6_sepconv3_act[0][0]        
__________________________________________________________________________________________________
block6_sepconv3_bn (BatchNormal (None, 13, 13, 728)  2912        block6_sepconv3[0][0]            
__________________________________________________________________________________________________
add_5 (Add)                     (None, 13, 13, 728)  0           block6_sepconv3_bn[0][0]         
                                                                 add_4[0][0]                      
__________________________________________________________________________________________________
block7_sepconv1_act (Activation (None, 13, 13, 728)  0           add_5[0][0]                      
__________________________________________________________________________________________________
block7_sepconv1 (SeparableConv2 (None, 13, 13, 728)  536536      block7_sepconv1_act[0][0]        
__________________________________________________________________________________________________
block7_sepconv1_bn (BatchNormal (None, 13, 13, 728)  2912        block7_sepconv1[0][0]            
__________________________________________________________________________________________________
block7_sepconv2_act (Activation (None, 13, 13, 728)  0           block7_sepconv1_bn[0][0]         
__________________________________________________________________________________________________
block7_sepconv2 (SeparableConv2 (None, 13, 13, 728)  536536      block7_sepconv2_act[0][0]        
__________________________________________________________________________________________________
block7_sepconv2_bn (BatchNormal (None, 13, 13, 728)  2912        block7_sepconv2[0][0]            
__________________________________________________________________________________________________
block7_sepconv3_act (Activation (None, 13, 13, 728)  0           block7_sepconv2_bn[0][0]         
__________________________________________________________________________________________________
block7_sepconv3 (SeparableConv2 (None, 13, 13, 728)  536536      block7_sepconv3_act[0][0]        
__________________________________________________________________________________________________
block7_sepconv3_bn (BatchNormal (None, 13, 13, 728)  2912        block7_sepconv3[0][0]            
__________________________________________________________________________________________________
add_6 (Add)                     (None, 13, 13, 728)  0           block7_sepconv3_bn[0][0]         
                                                                 add_5[0][0]                      
__________________________________________________________________________________________________
block8_sepconv1_act (Activation (None, 13, 13, 728)  0           add_6[0][0]                      
__________________________________________________________________________________________________
block8_sepconv1 (SeparableConv2 (None, 13, 13, 728)  536536      block8_sepconv1_act[0][0]        
__________________________________________________________________________________________________
block8_sepconv1_bn (BatchNormal (None, 13, 13, 728)  2912        block8_sepconv1[0][0]            
__________________________________________________________________________________________________
block8_sepconv2_act (Activation (None, 13, 13, 728)  0           block8_sepconv1_bn[0][0]         
__________________________________________________________________________________________________
block8_sepconv2 (SeparableConv2 (None, 13, 13, 728)  536536      block8_sepconv2_act[0][0]        
__________________________________________________________________________________________________
block8_sepconv2_bn (BatchNormal (None, 13, 13, 728)  2912        block8_sepconv2[0][0]            
__________________________________________________________________________________________________
block8_sepconv3_act (Activation (None, 13, 13, 728)  0           block8_sepconv2_bn[0][0]         
__________________________________________________________________________________________________
block8_sepconv3 (SeparableConv2 (None, 13, 13, 728)  536536      block8_sepconv3_act[0][0]        
__________________________________________________________________________________________________
block8_sepconv3_bn (BatchNormal (None, 13, 13, 728)  2912        block8_sepconv3[0][0]            
__________________________________________________________________________________________________
add_7 (Add)                     (None, 13, 13, 728)  0           block8_sepconv3_bn[0][0]         
                                                                 add_6[0][0]                      
__________________________________________________________________________________________________
block9_sepconv1_act (Activation (None, 13, 13, 728)  0           add_7[0][0]                      
__________________________________________________________________________________________________
block9_sepconv1 (SeparableConv2 (None, 13, 13, 728)  536536      block9_sepconv1_act[0][0]        
__________________________________________________________________________________________________
block9_sepconv1_bn (BatchNormal (None, 13, 13, 728)  2912        block9_sepconv1[0][0]            
__________________________________________________________________________________________________
block9_sepconv2_act (Activation (None, 13, 13, 728)  0           block9_sepconv1_bn[0][0]         
__________________________________________________________________________________________________
block9_sepconv2 (SeparableConv2 (None, 13, 13, 728)  536536      block9_sepconv2_act[0][0]        
__________________________________________________________________________________________________
block9_sepconv2_bn (BatchNormal (None, 13, 13, 728)  2912        block9_sepconv2[0][0]            
__________________________________________________________________________________________________
block9_sepconv3_act (Activation (None, 13, 13, 728)  0           block9_sepconv2_bn[0][0]         
__________________________________________________________________________________________________
block9_sepconv3 (SeparableConv2 (None, 13, 13, 728)  536536      block9_sepconv3_act[0][0]        
__________________________________________________________________________________________________
block9_sepconv3_bn (BatchNormal (None, 13, 13, 728)  2912        block9_sepconv3[0][0]            
__________________________________________________________________________________________________
add_8 (Add)                     (None, 13, 13, 728)  0           block9_sepconv3_bn[0][0]         
                                                                 add_7[0][0]                      
__________________________________________________________________________________________________
block10_sepconv1_act (Activatio (None, 13, 13, 728)  0           add_8[0][0]                      
__________________________________________________________________________________________________
block10_sepconv1 (SeparableConv (None, 13, 13, 728)  536536      block10_sepconv1_act[0][0]       
__________________________________________________________________________________________________
block10_sepconv1_bn (BatchNorma (None, 13, 13, 728)  2912        block10_sepconv1[0][0]           
__________________________________________________________________________________________________
block10_sepconv2_act (Activatio (None, 13, 13, 728)  0           block10_sepconv1_bn[0][0]        
__________________________________________________________________________________________________
block10_sepconv2 (SeparableConv (None, 13, 13, 728)  536536      block10_sepconv2_act[0][0]       
__________________________________________________________________________________________________
block10_sepconv2_bn (BatchNorma (None, 13, 13, 728)  2912        block10_sepconv2[0][0]           
__________________________________________________________________________________________________
block10_sepconv3_act (Activatio (None, 13, 13, 728)  0           block10_sepconv2_bn[0][0]        
__________________________________________________________________________________________________
block10_sepconv3 (SeparableConv (None, 13, 13, 728)  536536      block10_sepconv3_act[0][0]       
__________________________________________________________________________________________________
block10_sepconv3_bn (BatchNorma (None, 13, 13, 728)  2912        block10_sepconv3[0][0]           
__________________________________________________________________________________________________
add_9 (Add)                     (None, 13, 13, 728)  0           block10_sepconv3_bn[0][0]        
                                                                 add_8[0][0]                      
__________________________________________________________________________________________________
block11_sepconv1_act (Activatio (None, 13, 13, 728)  0           add_9[0][0]                      
__________________________________________________________________________________________________
block11_sepconv1 (SeparableConv (None, 13, 13, 728)  536536      block11_sepconv1_act[0][0]       
__________________________________________________________________________________________________
block11_sepconv1_bn (BatchNorma (None, 13, 13, 728)  2912        block11_sepconv1[0][0]           
__________________________________________________________________________________________________
block11_sepconv2_act (Activatio (None, 13, 13, 728)  0           block11_sepconv1_bn[0][0]        
__________________________________________________________________________________________________
block11_sepconv2 (SeparableConv (None, 13, 13, 728)  536536      block11_sepconv2_act[0][0]       
__________________________________________________________________________________________________
block11_sepconv2_bn (BatchNorma (None, 13, 13, 728)  2912        block11_sepconv2[0][0]           
__________________________________________________________________________________________________
block11_sepconv3_act (Activatio (None, 13, 13, 728)  0           block11_sepconv2_bn[0][0]        
__________________________________________________________________________________________________
block11_sepconv3 (SeparableConv (None, 13, 13, 728)  536536      block11_sepconv3_act[0][0]       
__________________________________________________________________________________________________
block11_sepconv3_bn (BatchNorma (None, 13, 13, 728)  2912        block11_sepconv3[0][0]           
__________________________________________________________________________________________________
add_10 (Add)                    (None, 13, 13, 728)  0           block11_sepconv3_bn[0][0]        
                                                                 add_9[0][0]                      
__________________________________________________________________________________________________
block12_sepconv1_act (Activatio (None, 13, 13, 728)  0           add_10[0][0]                     
__________________________________________________________________________________________________
block12_sepconv1 (SeparableConv (None, 13, 13, 728)  536536      block12_sepconv1_act[0][0]       
__________________________________________________________________________________________________
block12_sepconv1_bn (BatchNorma (None, 13, 13, 728)  2912        block12_sepconv1[0][0]           
__________________________________________________________________________________________________
block12_sepconv2_act (Activatio (None, 13, 13, 728)  0           block12_sepconv1_bn[0][0]        
__________________________________________________________________________________________________
block12_sepconv2 (SeparableConv (None, 13, 13, 728)  536536      block12_sepconv2_act[0][0]       
__________________________________________________________________________________________________
block12_sepconv2_bn (BatchNorma (None, 13, 13, 728)  2912        block12_sepconv2[0][0]           
__________________________________________________________________________________________________
block12_sepconv3_act (Activatio (None, 13, 13, 728)  0           block12_sepconv2_bn[0][0]        
__________________________________________________________________________________________________
block12_sepconv3 (SeparableConv (None, 13, 13, 728)  536536      block12_sepconv3_act[0][0]       
__________________________________________________________________________________________________
block12_sepconv3_bn (BatchNorma (None, 13, 13, 728)  2912        block12_sepconv3[0][0]           
__________________________________________________________________________________________________
add_11 (Add)                    (None, 13, 13, 728)  0           block12_sepconv3_bn[0][0]        
                                                                 add_10[0][0]                     
__________________________________________________________________________________________________
block13_sepconv1_act (Activatio (None, 13, 13, 728)  0           add_11[0][0]                     
__________________________________________________________________________________________________
block13_sepconv1 (SeparableConv (None, 13, 13, 728)  536536      block13_sepconv1_act[0][0]       WARNING:tensorflow:From /home/tx-lab/anaconda3/envs/dingyue/lib/python3.7/site-packages/keras/backend/tensorflow_backend.py:422: The name tf.global_variables is deprecated. Please use tf.compat.v1.global_variables instead.

2022-03-06 22:20:04.126695: I tensorflow/stream_executor/platform/default/dso_loader.cc:42] Successfully opened dynamic library libcublas.so.10
2022-03-06 22:20:04.295321: I tensorflow/stream_executor/platform/default/dso_loader.cc:42] Successfully opened dynamic library libcudnn.so.7

__________________________________________________________________________________________________
block13_sepconv1_bn (BatchNorma (None, 13, 13, 728)  2912        block13_sepconv1[0][0]           
__________________________________________________________________________________________________
block13_sepconv2_act (Activatio (None, 13, 13, 728)  0           block13_sepconv1_bn[0][0]        
__________________________________________________________________________________________________
block13_sepconv2 (SeparableConv (None, 13, 13, 1024) 752024      block13_sepconv2_act[0][0]       
__________________________________________________________________________________________________
block13_sepconv2_bn (BatchNorma (None, 13, 13, 1024) 4096        block13_sepconv2[0][0]           
__________________________________________________________________________________________________
conv2d_4 (Conv2D)               (None, 7, 7, 1024)   745472      add_11[0][0]                     
__________________________________________________________________________________________________
block13_pool (MaxPooling2D)     (None, 7, 7, 1024)   0           block13_sepconv2_bn[0][0]        
__________________________________________________________________________________________________
batch_normalization_4 (BatchNor (None, 7, 7, 1024)   4096        conv2d_4[0][0]                   
__________________________________________________________________________________________________
add_12 (Add)                    (None, 7, 7, 1024)   0           block13_pool[0][0]               
                                                                 batch_normalization_4[0][0]      
__________________________________________________________________________________________________
block14_sepconv1 (SeparableConv (None, 7, 7, 1536)   1582080     add_12[0][0]                     
__________________________________________________________________________________________________
block14_sepconv1_bn (BatchNorma (None, 7, 7, 1536)   6144        block14_sepconv1[0][0]           
__________________________________________________________________________________________________
block14_sepconv1_act (Activatio (None, 7, 7, 1536)   0           block14_sepconv1_bn[0][0]        
__________________________________________________________________________________________________
block14_sepconv2 (SeparableConv (None, 7, 7, 2048)   3159552     block14_sepconv1_act[0][0]       
__________________________________________________________________________________________________
block14_sepconv2_bn (BatchNorma (None, 7, 7, 2048)   8192        block14_sepconv2[0][0]           
__________________________________________________________________________________________________
block14_sepconv2_act (Activatio (None, 7, 7, 2048)   0           block14_sepconv2_bn[0][0]        
__________________________________________________________________________________________________
avg_pool (GlobalAveragePooling2 (None, 2048)         0           block14_sepconv2_act[0][0]       
__________________________________________________________________________________________________
predictions (Dense)             (None, 12)           24588       avg_pool[0][0]                   
==================================================================================================
Total params: 20,886,068
Trainable params: 20,831,540
Non-trainable params: 54,528
__________________________________________________________________________________________________
Found 1920 images belonging to 12 classes.
Found 480 images belonging to 12 classes.
…
